…
ct(), '_forward_pre_hooks_with_kwargs': OrderedDict(), '_state_dict_hooks': OrderedDict(), '_state_dict_pre_hooks': OrderedDict(), '_load_state_dict_pre_hooks': OrderedDict(), '_load_state_dict_post_hooks': OrderedDict(), '_modules': OrderedDict([('sigmoid', Sigmoid())]), 'beta': 0.9, 'gamma': 2}
==========================================================================================
Layer (type:depth-idx)                   Output Shape              Param #
==========================================================================================
SDFUnetLevel3                            [1, 1, 64, 64, 64]        --
├─Conv3d: 1-1                            [1, 32, 64, 64, 64]       896
├─ReLU: 1-2                              [1, 32, 64, 64, 64]       --
├─Conv3d: 1-3                            [1, 64, 64, 64, 64]       55,360
├─ReLU: 1-4                              [1, 64, 64, 64, 64]       --
├─MaxPool3d: 1-5                         [1, 64, 32, 32, 32]       --
├─Conv3d: 1-6                            [1, 64, 32, 32, 32]       110,656
├─ReLU: 1-7                              [1, 64, 32, 32, 32]       --
├─Conv3d: 1-8                            [1, 128, 32, 32, 32]      221,312
├─ReLU: 1-9                              [1, 128, 32, 32, 32]      --
├─MaxPool3d: 1-10                        [1, 128, 16, 16, 16]      --
├─Conv3d: 1-11                           [1, 128, 16, 16, 16]      442,496
├─ReLU: 1-12                             [1, 128, 16, 16, 16]      --
├─Conv3d: 1-13                           [1, 256, 16, 16, 16]      884,992
├─ReLU: 1-14                             [1, 256, 16, 16, 16]      --
├─MaxPool3d: 1-15                        [1, 256, 8, 8, 8]         --
├─Conv3d: 1-16                           [1, 256, 8, 8, 8]         1,769,728
├─ReLU: 1-17                             [1, 256, 8, 8, 8]         --
├─Conv3d: 1-18                           [1, 512, 8, 8, 8]         3,539,456
├─ReLU: 1-19                             [1, 512, 8, 8, 8]         --
├─ConvTranspose3d: 1-20                  [1, 512, 16, 16, 16]      7,078,400
├─Conv3d: 1-21                           [1, 256, 16, 16, 16]      5,308,672
├─ReLU: 1-22                             [1, 256, 16, 16, 16]      --
├─Conv3d: 1-23                           [1, 256, 16, 16, 16]      1,769,728
├─ReLU: 1-24                             [1, 256, 16, 16, 16]      --
├─ConvTranspose3d: 1-25                  [1, 256, 32, 32, 32]      1,769,728
├─Conv3d: 1-26                           [1, 128, 32, 32, 32]      1,327,232
├─ReLU: 1-27                             [1, 128, 32, 32, 32]      --
├─Conv3d: 1-28                           [1, 128, 32, 32, 32]      442,496
├─ReLU: 1-29                             [1, 128, 32, 32, 32]      --
├─ConvTranspose3d: 1-30                  [1, 128, 64, 64, 64]      442,496
├─Conv3d: 1-31                           [1, 64, 64, 64, 64]       331,840
├─ReLU: 1-32                             [1, 64, 64, 64, 64]       --
├─Conv3d: 1-33                           [1, 64, 64, 64, 64]       110,656
├─ReLU: 1-34                             [1, 64, 64, 64, 64]       --
├─Conv3d: 1-35                           [1, 1, 64, 64, 64]        1,729
==========================================================================================
Total params: 25,607,873
Trainable params: 25,607,873
Non-trainable params: 0
Total mult-adds (G): 440.20
==========================================================================================
Input size (MB): 1.05
Forward/backward pass size (MB): 974.13
Params size (MB): 102.43
Estimated Total Size (MB): 1077.61
…
